…
...     plt.title('model loss')
...     plt.ylabel('loss')
...     plt.xlabel('epoch')
...     plt.legend(['train', 'test'], loc='upper left')
...     plt.savefig("documentation/plots/loss/"+manual["title"]+".png", format="png")      
...     plt.clf()
... #function for converting tokenized data to text
...

MODEL: Dutch to English translator (word-based, Word2Vec embedding)
Model: "sequential_10"
_________________________________________________________________
 Layer (type)                Output Shape              Param #
=================================================================
 embedding_6 (Embedding)     (None, 212, 320)          8208960

 gru_20 (GRU)                (None, 64)                74112

 repeat_vector_10 (RepeatVec  (None, 211, 64)          0
 tor)

 gru_21 (GRU)                (None, 211, 64)           24960

 time_distributed_10 (TimeDi  (None, 211, 18108)       1177020
 stributed)

=================================================================
Total params: 9,485,052
Trainable params: 9,485,052
Non-trainable params: 0
_________________________________________________________________
Epoch 1/3
2022-08-07 02:03:06.524402: W tensorflow/core/framework/cpu_allocator_impl.cc:82] Allocation of 244530432 exceeds 10% of free system memory.
2022-08-07 02:03:06.767837: W tensorflow/core/framework/cpu_allocator_impl.cc:82] Allocation of 244530432 exceeds 10% of free system memory.
…
<matplotlib.legend.Legend object at 0x000002E9B5F66560>
[<matplotlib.lines.Line2D object at 0x000002E9B5FE68C0>]
[<matplotlib.lines.Line2D object at 0x000002E9B5FE6BC0>]
Text(0.5, 1.0, 'model loss')
Text(0, 0.5, 'loss')
Text(0.5, 0, 'epoch')
<matplotlib.legend.Legend object at 0x000002E7F38516C0>

MODEL: Dutch to English translator (word-based, Word2Vec embedding, with attention
Model: "sequential_13"
_________________________________________________________________
 Layer (type)                Output Shape              Param #
=================================================================
 embedding_9 (Embedding)     (None, 212, 320)          8208960

 gru_26 (GRU)                (None, 64)                74112

 repeat_vector_13 (RepeatVec  (None, 211, 64)          0
 tor)

 seq_self_attention_2 (SeqSe  (None, 211, 64)          4161
 lfAttention)

 gru_27 (GRU)                (None, 211, 64)           24960

 time_distributed_13 (TimeDi  (None, 211, 18108)       1177020
 stributed)

=================================================================
Total params: 9,489,213
Trainable params: 9,489,213
Non-trainable params: 0
_________________________________________________________________
Epoch 1/3
964/964 [==============================] - 1975s 2s/step - loss: 1.3192 - accuracy: 0.8824 
- val_loss: 0.9197 - val_accuracy: 0.8816
Epoch 2/3
964/964 [==============================] - 1941s 2s/step - loss: 0.9050 - accuracy: 0.8826 
…
<matplotlib.legend.Legend object at 0x000002E9BA895F90>
[<matplotlib.lines.Line2D object at 0x000002E9BA8E8070>]
[<matplotlib.lines.Line2D object at 0x000002E9BA8E8370>]
Text(0.5, 1.0, 'model loss')
Text(0, 0.5, 'loss')
Text(0.5, 0, 'epoch')
<matplotlib.legend.Legend object at 0x000002E9BA8C7E80>

MODEL: English to Dutch translator (word-based, Word2Vec embedding, with attention)
Model: "sequential_12"
_________________________________________________________________
 Layer (type)                Output Shape              Param #
=================================================================
 embedding_8 (Embedding)     (None, 211, 300)          5432400

 gru_24 (GRU)                (None, 64)                70272

 repeat_vector_12 (RepeatVec  (None, 212, 64)          0
 tor)

 seq_self_attention_1 (SeqSe  (None, 212, 64)          4161
 lfAttention)

 gru_25 (GRU)                (None, 212, 64)           24960

 time_distributed_12 (TimeDi  (None, 212, 25653)       1667445
 stributed)

=================================================================
Total params: 7,199,238
Trainable params: 7,199,238
Non-trainable params: 0
_________________________________________________________________
Epoch 1/3
964/964 [==============================] - 2572s 3s/step - loss: 1.3757 - accuracy: 0.8815 
- val_loss: 0.9383 - val_accuracy: 0.8812
Epoch 2/3
964/964 [==============================] - 2564s 3s/step - loss: 0.9249 - accuracy: 0.8816 
…
<matplotlib.legend.Legend object at 0x000002E9BD3A95D0>
[<matplotlib.lines.Line2D object at 0x000002E9BD3F83D0>]
[<matplotlib.lines.Line2D object at 0x000002E9BD3F8CA0>]
Text(0.5, 1.0, 'model loss')
Text(0, 0.5, 'loss')
Text(0.5, 0, 'epoch')
<matplotlib.legend.Legend object at 0x000002E9BD3A9330>

MODEL: English to Dutch translator (word-based, Word2Vec embedding)
Model: "sequential_9"
_________________________________________________________________
 Layer (type)                Output Shape              Param #
=================================================================
 embedding_5 (Embedding)     (None, 211, 300)          5432400

 gru_18 (GRU)                (None, 64)                70272

 repeat_vector_9 (RepeatVect  (None, 212, 64)          0
 or)

 gru_19 (GRU)                (None, 212, 64)           24960

 time_distributed_9 (TimeDis  (None, 212, 25653)       1667445
 tributed)

=================================================================
Total params: 7,195,077
Trainable params: 7,195,077
Non-trainable params: 0
_________________________________________________________________
Epoch 1/3
964/964 [==============================] - 2438s 3s/step - loss: 1.3781 - accuracy: 0.8815 
- val_loss: 0.9345 - val_accuracy: 0.8812
Epoch 2/3
964/964 [==============================] - 2435s 3s/step - loss: 0.9226 - accuracy: 0.8821 
…
